_boards/mimxrt700evk/eiq_examples/tflm_kws/npu/ds_cnn_s_npu.tflite (tflite, 34608 bytes, 2 tensors)

NeutronMicrocode u1 [1544]
000000 6e 4d 43 64 1b 3f 93 1c be 05 00 00 00 00 00 00
       110 77 67 100 27 63 147 28 190 5 0 0 0 0 0 0
000010 be 05 00 00 08 00 00 00 08 06 00 00 e0 7a 00 00
       190 5 0 0 8 0 0 0 8 6 0 0 224 122 0 0
000020 01 00 00 00 80 3e 00 00 00 00 00 00 01 00 00 00
       1 0 0 0 128 62 0 0 0 0 0 0 1 0 0 0
000030 01 00 00 00 0c 00 00 00 b7 01 00 00 00 00 00 00
       1 0 0 0 12 0 0 0 183 1 0 0 0 0 0 0
000040 03 03 04 00 01 00 02 42 40 1f 00 00 00 00 00 00
       3 3 4 0 1 0 2 66 64 31 0 0 0 0 0 0
000050 00 00 00 00 31 00 00 00 0a 00 00 00 10 00 00 00
       0 0 0 0 49 0 0 0 10 0 0 0 16 0 0 0
000060 44 00 00 00 20 00 09 40 00 00 00 00 05 42 03 05
       68 0 0 0 32 0 9 64 0 0 0 0 5 66 3 5
000070 04 04 01 01 01 00 02 07 00 00 00 00 40 1f 00 00
       4 4 1 1 1 0 2 7 0 0 0 0 64 31 0 0
000080 10 02 00 00 10 00 00 00 10 01 00 00 01 00 00 00
       16 2 0 0 16 0 0 0 16 1 0 0 1 0 0 0
000090 19 00 00 00 05 00 00 00 40 00 00 00 40 00 00 00
       25 0 0 0 5 0 0 0 64 0 0 0 64 0 0 0
0000a0 01 00 00 00 31 00 00 00 0a 00 00 00 01 00 00 00
       1 0 0 0 49 0 0 0 10 0 0 0 1 0 0 0
0000b0 0a 00 00 00 04 00 00 00 02 00 00 00 02 00 00 00
       10 0 0 0 4 0 0 0 2 0 0 0 2 0 0 0
0000c0 04 00 00 00 01 00 00 00 05 00 00 00 01 00 00 00
       4 0 0 0 1 0 0 0 5 0 0 0 1 0 0 0
0000d0 01 00 00 00 01 00 00 00 20 00 0f 07 00 00 00 00
       1 0 0 0 1 0 0 0 32 0 15 7 0 0 0 0
0000e0 00 00 00 00 01 00 00 00 01 00 00 00 44 00 00 00
       0 0 0 0 1 0 0 0 1 0 0 0 68 0 0 0
0000f0 00 80 00 00 00 00 00 00 00 00 00 00 00 00 00 00
       0 128 0 0 0 0 0 0 0 0 0 0 0 0 0 0

NeutronWeights u1 [31456]
000000 01 01 01 01 01 01 01 01 01 01 00 00 00 00 00 00
       1 1 1 1 1 1 1 1 1 1 0 0 0 0 0 0
000010 8c 3a 00 00 1f ec ff ff 7d b5 00 00 87 dc ff ff
       140 58 0 0 31 236 255 255 125 181 0 0 135 220 255 255
000020 61 e3 ff ff 2c 60 00 00 b9 e1 ff ff f7 47 00 00
       97 227 255 255 44 96 0 0 185 225 255 255 247 71 0 0
000030 c4 96 ff ff 60 d6 ff ff 82 d8 ff ff 48 04 00 00
       196 150 255 255 96 214 255 255 130 216 255 255 72 4 0 0
000040 ab 78 00 00 f7 3d 00 00 0f f4 ff ff 59 41 ff ff
       171 120 0 0 247 61 0 0 15 244 255 255 89 65 255 255
000050 9a 8b ff ff 3a c7 ff ff 82 06 00 00 2b 3a ff ff
       154 139 255 255 58 199 255 255 130 6 0 0 43 58 255 255
000060 82 b3 00 00 1e ff ff ff 71 e3 ff ff 0f 12 00 00
       130 179 0 0 30 255 255 255 113 227 255 255 15 18 0 0
000070 de c1 ff ff 2a b2 ff ff e8 3a 00 00 03 1a 00 00
       222 193 255 255 42 178 255 255 232 58 0 0 3 26 0 0
000080 05 f6 ff ff 59 4d 00 00 3a 30 00 00 b0 92 ff ff
       5 246 255 255 89 77 0 0 58 48 0 0 176 146 255 255
000090 40 0f 00 00 73 12 00 00 74 de ff ff c2 47 00 00
       64 15 0 0 115 18 0 0 116 222 255 255 194 71 0 0
0000a0 7f 78 00 00 07 56 00 00 15 29 00 00 47 c9 ff ff
       127 120 0 0 7 86 0 0 21 41 0 0 71 201 255 255
0000b0 1b 08 00 00 50 dd ff ff 01 21 00 00 a6 e6 fe ff
       27 8 0 0 80 221 255 255 1 33 0 0 166 230 254 255
0000c0 1c 5e 00 00 83 50 00 00 9f c3 ff ff 81 34 00 00
       28 94 0 0 131 80 0 0 159 195 255 255 129 52 0 0
0000d0 0a d5 ff ff 93 30 00 00 f4 cf ff ff c0 1f 00 00
       10 213 255 255 147 48 0 0 244 207 255 255 192 31 0 0
0000e0 4f 3d 00 00 e6 8d ff ff 04 e8 ff ff f5 4b 00 00
       79 61 0 0 230 141 255 255 4 232 255 255 245 75 0 0
0000f0 61 07 00 00 6e ee ff ff 0b 82 00 00 f9 a2 ff ff
       97 7 0 0 110 238 255 255 11 130 0 0 249 162 255 255
